tests/unit_tests/mocks/tiny-random-gpt2/model.safetensors (safetensors, 453864 bytes, 64 tensors)

transformer.h.0.attn.c_attn.bias f4 [96]
000000 00 00 00 00 00 00 00 00 00 00 00 00 00 00 00 00
       0.0 0.0 0.0 0.0
000010 00 00 00 00 00 00 00 00 00 00 00 00 00 00 00 00
       0.0 0.0 0.0 0.0
000020 00 00 00 00 00 00 00 00 00 00 00 00 00 00 00 00
       0.0 0.0 0.0 0.0
000030 00 00 00 00 00 00 00 00 00 00 00 00 00 00 00 00
       0.0 0.0 0.0 0.0
000040 00 00 00 00 00 00 00 00 00 00 00 00 00 00 00 00
       0.0 0.0 0.0 0.0
000050 00 00 00 00 00 00 00 00 00 00 00 00 00 00 00 00
       0.0 0.0 0.0 0.0
000060 00 00 00 00 00 00 00 00 00 00 00 00 00 00 00 00
       0.0 0.0 0.0 0.0
000070 00 00 00 00 00 00 00 00 00 00 00 00 00 00 00 00
       0.0 0.0 0.0 0.0
000080 00 00 00 00 00 00 00 00 00 00 00 00 00 00 00 00
       0.0 0.0 0.0 0.0
000090 00 00 00 00 00 00 00 00 00 00 00 00 00 00 00 00
       0.0 0.0 0.0 0.0
0000a0 00 00 00 00 00 00 00 00 00 00 00 00 00 00 00 00
       0.0 0.0 0.0 0.0
0000b0 00 00 00 00 00 00 00 00 00 00 00 00 00 00 00 00
       0.0 0.0 0.0 0.0
0000c0 00 00 00 00 00 00 00 00 00 00 00 00 00 00 00 00
       0.0 0.0 0.0 0.0
0000d0 00 00 00 00 00 00 00 00 00 00 00 00 00 00 00 00
       0.0 0.0 0.0 0.0
0000e0 00 00 00 00 00 00 00 00 00 00 00 00 00 00 00 00
       0.0 0.0 0.0 0.0
0000f0 00 00 00 00 00 00 00 00 00 00 00 00 00 00 00 00
       0.0 0.0 0.0 0.0
000100 00 00 00 00 00 00 00 00 00 00 00 00 00 00 00 00
       0.0 0.0 0.0 0.0
000110 00 00 00 00 00 00 00 00 00 00 00 00 00 00 00 00
       0.0 0.0 0.0 0.0
000120 00 00 00 00 00 00 00 00 00 00 00 00 00 00 00 00
       0.0 0.0 0.0 0.0
000130 00 00 00 00 00 00 00 00 00 00 00 00 00 00 00 00
       0.0 0.0 0.0 0.0
000140 00 00 00 00 00 00 00 00 00 00 00 00 00 00 00 00
       0.0 0.0 0.0 0.0
000150 00 00 00 00 00 00 00 00 00 00 00 00 00 00 00 00
       0.0 0.0 0.0 0.0
000160 00 00 00 00 00 00 00 00 00 00 00 00 00 00 00 00
       0.0 0.0 0.0 0.0
000170 00 00 00 00 00 00 00 00 00 00 00 00 00 00 00 00
       0.0 0.0 0.0 0.0

transformer.h.0.attn.c_attn.weight f4 [32, 96]
000000 00 c3 d1 3c 52 4c ef 3c e1 85 29 3c 3f 11 0f bc
       0.025605679 0.029211197 0.010346861 -0.008732139
000010 32 d4 8f bc 57 7a 03 3b 5b 5b f2 3b fe 12 d0 bb
       -0.017557237 0.0020061934 0.0073961443 -0.0063499203
000020 fd e7 c4 bc 96 a3 a3 3c 8e f7 47 bb 98 92 41 bc
       -0.024036402 0.019975465 -0.0030512544 -0.011814736
000030 46 b4 dd bb 82 3f 6a bb fe e4 3f 3c 38 33 ee 3b
       -0.006765875 -0.003574342 0.011712311 0.0072692893
000040 14 b3 18 3d dc 9f 9e 3c 00 ed 27 bc 18 86 01 bc
       0.037280157 0.019363336 -0.010249376 -0.007905506
000050 9b a0 37 3b f0 95 ef 3c af 2c 68 3a 8c 21 a2 bc
       0.0028019312 0.0292463 0.0008856756 -0.019791387
000060 cd 9b 0f 3c e6 d3 3e b9 19 93 8b bc 89 5f 11 3c
       0.008765173 -0.0001819875 -0.017037915 0.008872875
000070 98 c2 a7 3c 82 b5 db 3c bd a0 a7 bb 41 04 3a 3b
       0.020478532 0.026819948 -0.005115597 0.0028383883
000080 ea c3 c7 3b 56 71 1e 3b 26 70 59 3c b8 e3 a6 bc
       0.006096353 0.002417644 0.013271367 -0.020372257
000090 8e f2 52 bc be 53 ca bc 8a 7f 33 3c ea f0 cd 3b
       -0.012875212 -0.024698135 0.010955701 0.0062848227
0000a0 1e cd 12 3d b6 42 09 3d 13 f3 bb 3c df 3b 8c bc
       0.035840146 0.033510886 0.022943055 -0.017118393
0000b0 74 6f b0 bc 5a e2 18 ba 7d 1c 41 bd bc 3b 85 3c
       -0.02153752 -0.0005832069 -0.04714631 0.016263835
0000c0 74 69 e1 3c e8 f0 88 39 4e f1 c4 3c f3 a2 ae 3c
       0.027516104 0.0002611943 0.024040844 0.021317935
0000d0 a9 9a 52 bc b9 42 f6 3c 9d 20 3c bc 89 26 9d 3c
       -0.012854257 0.030061113 -0.011482385 0.019183414
0000e0 cd 9b 8b bc 27 f7 31 bd 8c 26 91 3c d0 b4 74 3c
       -0.017042065 -0.043448593 0.017718576 0.014935687
0000f0 e3 36 a3 bb 7f 1a 07 bd 41 31 57 bd 06 a2 98 3c
       -0.0049809082 -0.032984253 -0.052537207 0.018631946
000100 03 59 17 bd 53 25 a9 3b 69 8a 2e 3c 6f 1b 4c 3c
       -0.036950123 0.00516192 0.010653117 0.012457713
000110 ab 4a a5 3c 4a 5e 72 3c c7 86 2c 3d 35 56 d2 3b
       0.020177206 0.014792988 0.04212072 0.006418968
000120 b3 a6 ab bc 40 ad c9 bc 8b 24 33 bc 42 ea e4 3a
       -0.020953512 -0.024618745 -0.0109340055 0.0017464834
000130 47 22 cf 3c 59 5a c7 3b a6 de 84 bb 02 f0 17 3d
       0.0252849 0.0060837683 -0.004054862 0.037094124
000140 ca f5 ea 3b 7a a7 08 3d ca ff a7 bb 47 5e 3d bc
       0.0071704136 0.033362843 -0.005126928 -0.011558122
000150 9c 14 9b bc 5b d8 95 3b 75 ab d6 bb 1e 66 0b bb
       -0.018930726 0.0045729107 -0.006551201 -0.0021270583
000160 4b 9f 8b 3b ac 98 e8 bc 42 62 ad 3c 14 5a d0 3c
       0.0042609326 -0.028393112 0.021165017 0.025433578
000170 d6 0e 1e bc c0 0f fe 3c 75 53 6e 3c cf 27 a2 bb
       -0.009647092 0.03101337 0.014546265 -0.004948593
000180 ae 2a c8 bc b5 6a 1a bd 3c 1d 4c bd db d9 95 bc
       -0.024434414 -0.03769942 -0.049832568 -0.018292358
000190 2e 1e d4 3b 8d 8d 03 ba f4 1e 42 bc 61 ab e3 bb
       0.0064733243 -0.0005018346 -0.0118482 -0.00694792
0001a0 2c 18 7c 3c 8b 7a 88 3c e7 5d d9 bc 67 1c 78 bd
       0.015386622 0.016659996 -0.026534034 -0.06057396
0001b0 5f 50 84 3d ef 0a ba ba c0 2d 8f 3c 37 a5 04 3c
       0.06460642 -0.0014193932 0.01747787 0.008096031
0001c0 a6 20 23 3d 37 15 22 bc 43 42 f9 bb 4e c6 34 bc
       0.039826058 -0.009892753 -0.007606776 -0.011033608
0001d0 59 40 84 3c d9 fa 49 3c 30 de ff bb 46 2d b3 3c
       0.016143965 0.012327873 -0.0078084692 0.021872174
0001e0 b2 f8 ce ba 5b f9 a0 3c ff 72 12 ba 52 a7 3d bd
       -0.001579067 0.019650152 -0.0005586594 -0.046302147
0001f0 d2 08 ae 3c 52 b0 5a b8 bb 09 81 bc 87 35 14 bd
       0.02124444 -5.213946e-05 -0.01575171 -0.03618386
000200 67 e9 d5 bc 10 42 86 3c 8a 54 10 3d 40 0c 8c bb
       -0.026112271 0.016388923 0.035236873 -0.0042739213
000210 db 42 d3 3b b0 31 9c 3c a9 46 f3 3b fd 47 ea bb
       0.006447179 0.019066662 0.007424195 -0.007149695
000220 ec a6 f3 bc 78 a9 65 3a f5 51 d7 ba 17 ec 98 3c
       -0.02974268 0.00087609095 -0.0016427623 0.018667264
000230 52 3e d4 3c 19 62 47 b9 25 37 39 3c 0f 76 a5 3c
       0.025908623 -0.00019014663 0.011304651 0.020197896
000240 78 77 5f 3b 77 af 36 3b f0 fc d6 bc 10 54 be bb
       0.0034098309 0.0027875581 -0.026243657 -0.005808361
000250 0b df 45 bb b7 36 f4 bc cc 2c 6c 3b fc 05 c8 3c
       -0.0030192758 -0.029811246 0.0036037443 0.024416916
000260 a6 47 47 3c 8f 96 4b 3c 59 40 f4 bb 5b 69 0d bd
       0.012163078 0.012426033 -0.00745396 -0.034524303
000270 f0 7b 5f bd bc ce 75 bb b9 c5 86 bc dd b7 00 bc
       -0.054561555 -0.0037507256 -0.016451703 -0.007856336
000280 9e e2 46 3d 1e 38 36 bc 34 0d 26 3c e9 bf fa bb
       0.048555963 -0.011121778 0.010134984 -0.007652272
000290 2f 47 c7 bc 3b a7 ab 3c 8e 64 9d bc 1b 5d 64 3b
       -0.024325935 0.020953765 -0.019212987 0.0034845534
0002a0 60 fc 9f bc b9 27 47 bd fc d1 6a bb b0 b6 ce 3b
       -0.019529521 -0.048621867 -0.0035830727 0.006308399
0002b0 1c 31 a9 3b 82 12 3e bc 55 ea b1 3a d2 ce c2 bc
       0.005163325 -0.011601092 0.0013573865 -0.02378026
0002c0 ac 0c 1a bb ac a5 dc 3c 96 d7 1b 3a 43 7e 99 bc
       -0.0023506088 0.026934467 0.00059449056 -0.018736964
0002d0 74 fc a5 3c 37 eb a4 3c b9 85 c5 3b 49 6e 40 3c
       0.02026198 0.02013169 0.006027904 0.011745044
0002e0 07 e1 e3 3b d2 94 29 bc 69 98 f8 3c 70 2d 45 bc
       0.0069543156 -0.010350423 0.030346112 -0.012034759
0002f0 12 7c f4 bb 29 9c cd bc f4 ba d1 3b 80 5f 2f 3d
       -0.0074610794 -0.025098877 0.0064004604 0.042815685
000300 17 4b a6 ba 45 5c 20 3b 8f 3e f3 ba 54 22 1b 3d
       -0.0012687173 0.002446906 -0.0018558073 0.037874535
000310 81 93 3f bc ab 4b 85 bc a0 b4 e9 3b a9 f5 1e 3d
       -0.0116928825 -0.016271433 0.007132128 0.0388085
000320 75 c3 0e 3a ec 8d 98 bc 84 65 0c bc 00 7e 50 3c
       0.00054459955 -0.018622361 -0.008569125 0.012725353
000330 86 40 93 3c 06 80 0d 3a 3d 0a 51 bc 12 0e 68 3a
       0.017975103 0.00053978 -0.012758789 0.00088521943
000340 02 df be 3c f2 b7 b8 3c 41 bc bb 3c d8 6b bc bc
       0.023299698 0.02254865 0.022916915 -0.023000643
000350 ef f9 e1 ba b5 08 43 bc 84 12 a4 bc dd 4e cd bc
       -0.0017240624 -0.011903931 -0.02002836 -0.025062019
000360 65 d2 ec 3a 1e 8b 6f bc 24 ac 46 3c 35 8b 80 3d
       0.0018068074 -0.0146205705 0.012126002 0.06276552
000370 ac a3 83 bc 1d eb 85 3c f2 ed 10 bc 93 6a 71 bb
       -0.016069256 0.016347462 -0.008845793 -0.0036837205
000380 59 e2 ed bc 95 b7 52 ba 52 cb ac bb 5e 7a ca 3c
       -0.029038595 -0.000803822 -0.005273261 0.024716552
000390 bc 84 5b bc 05 fb 1f 39 0b 78 04 3b f7 ea 0b bc
       -0.013398346 0.00015256934 0.0020213153 -0.008539907
0003a0 5b 50 d2 3b 17 02 49 3c 83 3d 92 bb 30 b0 b0 bc
       0.0064182705 0.012268565 -0.004462899 -0.021568388
0003b0 e7 40 90 3b 6f 07 4d bc 74 0d 8f 3a 19 b2 61 3b
       0.004402268 -0.012513979 0.0010914044 0.003443843
0003c0 e5 3c 55 3c bb 39 30 bd 8f 89 24 3c 40 be b4 bb
       0.013015007 -0.043023806 0.010042562 -0.0055158436
0003d0 ab 3b cf bb 79 09 27 3a f7 3f ca ba f3 4a de bc
       -0.0063242516 0.0006371956 -0.001543044 -0.027135348
0003e0 d7 a1 75 3c 5c 39 ed bc d2 2f 84 bb 30 cf 1c bd
       0.014992199 -0.028958015 -0.004034021 -0.038283527
0003f0 a7 fe 95 bc 1d a4 e0 bc c2 05 97 3b 84 46 80 3c
       -0.018309904 -0.027422005 0.0046088407 0.015658624

transformer.h.0.attn.c_proj.bias f4 [32]
000000 00 00 00 00 00 00 00 00 00 00 00 00 00 00 00 00
       0.0 0.0 0.0 0.0
000010 00 00 00 00 00 00 00 00 00 00 00 00 00 00 00 00
       0.0 0.0 0.0 0.0
000020 00 00 00 00 00 00 00 00 00 00 00 00 00 00 00 00
       0.0 0.0 0.0 0.0
000030 00 00 00 00 00 00 00 00 00 00 00 00 00 00 00 00
       0.0 0.0 0.0 0.0
000040 00 00 00 00 00 00 00 00 00 00 00 00 00 00 00 00
       0.0 0.0 0.0 0.0
000050 00 00 00 00 00 00 00 00 00 00 00 00 00 00 00 00
       0.0 0.0 0.0 0.0
000060 00 00 00 00 00 00 00 00 00 00 00 00 00 00 00 00
       0.0 0.0 0.0 0.0
000070 00 00 00 00 00 00 00 00 00 00 00 00 00 00 00 00
       0.0 0.0 0.0 0.0

transformer.h.0.attn.c_proj.weight f4 [32, 32]
000000 3b 5b f8 3b a5 f0 1c 3b bc d2 5b 3d 0f a9 d3 3c
       0.007579235 0.0023947146 0.05366777 0.02583745
000010 49 cb b3 bc 26 9d a4 bb 93 69 af 3c 00 a6 c1 bc
       -0.02194752 -0.0050236164 0.021412646 -0.023638725
000020 8d ee 09 bd 61 4f 49 bc 17 9a 07 bc 3b b7 52 3b
       -0.033674765 -0.012286992 -0.008276484 0.003215267
000030 8b aa 99 3c be 73 f9 bc 3c f9 a3 3c ed 37 80 3c
       0.018758079 -0.030450698 0.020016305 0.015651667
000040 a6 ac 0f 3c 7d 3b 2e bc 76 28 17 3c 90 26 eb 3a
       0.00876919 -0.0106343 0.009225955 0.001794057
000050 60 09 5f bc f7 d5 e0 bb 34 26 83 3c ea 94 fb 3c
       -0.013613075 -0.006861444 0.016009428 0.030710656
000060 cd cb 86 bb ec ef d2 bc 0e af 8d bb 17 5c 55 3a
       -0.0041136504 -0.02574917 -0.0043238467 0.00081390276
000070 3d ea 6f 3c 5f 71 0f bd cc 49 84 ba 4c 29 d9 3c
       0.014643249 -0.03502023 -0.0010092794 0.02650895
000080 e9 e9 2c 3b 87 cc f2 bc 84 15 0b 3c 85 2b 5f 3c
       0.0026384539 -0.029638542 0.008489016 0.013621216
000090 39 78 c1 3c a2 6e 4c bc 66 14 45 bd 09 1b 84 3c
       0.023616897 -0.012477549 -0.048115157 0.016126173
0000a0 f0 0e c8 3c 97 bc ce bb f0 bf ad bc a9 b1 c0 bc
       0.024421185 -0.0063091028 -0.021209687 -0.023522215
0000b0 44 79 cc bc 82 61 8b bc 0d d5 b6 ba 17 ca 49 3d
       -0.024960168 -0.017014269 -0.0013948992 0.049264994
0000c0 66 b9 05 bc 21 d1 2b 3c f3 82 b2 3b 22 70 82 3d
       -0.008161878 0.010486872 0.0054477393 0.06369044
0000d0 b5 1c 58 bb 46 ce d4 bc ce f9 9c 3c be 0d 9b bc
       -0.0032976095 -0.025977265 0.019162085 -0.018927451
0000e0 66 5a d6 3a d3 d9 5b 3c 6c 78 e3 3c d7 b0 05 3c
       0.0016353845 0.013418633 0.027767383 0.008159838
0000f0 b4 db 2a bc f9 57 40 3d 69 b1 2d bc 07 12 8b bc
       -0.010428358 0.046958897 -0.01060138 -0.01697637
000100 09 da dc 3b e0 fb 1c bc 95 f1 40 3b 7c d4 a0 bb
       0.006739859 -0.009581536 0.002944087 -0.0049081426
000110 c2 31 53 bc bc 29 45 bc b2 a7 9f 3c 4f 9e b5 bc
       -0.012890281 -0.012033876 0.019489143 -0.022170214
000120 ef bc 83 bc cf 12 46 bc f4 dc 23 bc 19 6b 70 3c
       -0.016081301 -0.012089445 -0.01000141 0.014673972
000130 f3 40 8e bc 58 9e 4d 3c 98 f6 c1 bb f3 32 9f bc
       -0.017364955 0.012549959 -0.005919289 -0.019433474
000140 d4 48 6c 3c 6f 94 71 3c 61 44 c1 3b ab c3 c2 bb
       0.01442166 0.014744862 0.005898044 -0.0059437356
000150 f3 45 b2 bc 97 ac ec 3c f5 d3 8a bb ea 44 f7 bb
       -0.02176187 0.028890891 -0.004236693 -0.007546057
000160 78 68 32 bc 7f 0f 14 3c 67 87 48 b9 ea 0a c0 bc
       -0.010889165 0.009036898 -0.00019123928 -0.023442704
000170 f0 8e a0 bc a0 0b a0 bc 2d d6 39 3d 93 61 82 3c
       -0.019599408 -0.019536793 0.04537027 0.015915668
000180 47 01 95 bc 15 51 c8 ba 44 d5 1e bc ca b5 0e 3c
       -0.018189086 -0.0015282953 -0.009694401 0.008710334
000190 d2 e5 2e bb e1 69 6d bb 12 e4 9e bc 53 31 af bc
       -0.0026687277 -0.0036226439 -0.019395862 -0.021385824
0001a0 ae 70 68 3d 34 b9 18 bc 7d a9 37 3c cd 0c 03 b9
       0.056748085 -0.0093215 0.011209843 -0.00012497902
0001b0 2b 1c 80 3b 6a 00 f8 3b 53 83 72 3c 14 b7 17 bd
       0.003909608 0.0075684087 0.014801818 -0.03703983
0001c0 d9 f6 7a 39 bb c7 71 bc fd 3b ce 3c 29 ca 46 bd
       0.00023933816 -0.014757092 0.025175089 -0.04853264
0001d0 f6 6d 21 3d b0 73 8f bc ad 17 17 bd dc 51 68 bc
       0.039411508 -0.017511219 -0.036887813 -0.014179673
0001e0 53 63 ab b9 57 aa 3f 3c 16 96 06 3c 4b 37 1e 3b
       -0.00032689664 0.011698327 0.008214494 0.0024141844
0001f0 f4 d3 9b bc 50 b6 18 3a 40 ea 1f 3c cf 7a 90 ba
       -0.019021966 0.00058255065 0.009760439 -0.0011022928
000200 61 c6 2e 3c a9 12 29 bd 5b e4 5f 3c 53 98 1e 3d
       0.010667414 -0.04127756 0.013665284 0.038719486
000210 a3 d9 9f bc ff a3 1a 3b fe 15 f0 bc ab ea 23 ba
       -0.019512957 0.0023596284 -0.029307362 -0.0006252925
000220 bd d4 ba bc 2b 56 4a bc 77 b7 86 bc 2a 47 e9 bc
       -0.02280652 -0.012349646 -0.016444905 -0.028476316
000230 74 26 1f bc 1d 4d 33 ba a0 71 74 3c 57 20 a8 3b
       -0.009713758 -0.0006839799 0.014919668 0.0051308083
000240 8b 7c 03 bd 32 fe cb 3c 12 f7 c9 bc 6f 61 8c bb
       -0.032101195 0.024901483 -0.024653945 -0.004284076
000250 b4 47 0c bb 82 df b4 bc b0 d7 24 bb c2 f9 b8 bc
       -0.0021405043 -0.022079233 -0.0025152974 -0.022580031
000260 a2 c6 fe 3b 53 82 02 3d a1 b4 99 bb ef 67 62 3c
       0.0077751437 0.031862568 -0.004690722 0.013818725
000270 42 5b 4f 3d 95 48 b3 bc 73 d8 c3 bc bd e1 b9 39
       0.05062414 -0.021885196 -0.023906922 0.00035454138
000280 46 12 7a bc 79 f8 28 bd a6 9c a5 bb be 3c 3c bd
       -0.015263146 -0.041252587 -0.0050540743 -0.045956366
000290 9d 8e d8 bc 46 04 86 3c ef 01 8e bc 74 a9 f5 bc
       -0.02643519 0.01635946 -0.017334906 -0.029988028
0002a0 4b 99 31 3c a3 e6 13 3b 94 47 d0 bc 7d 1d cd bc
       0.010839771 0.002256789 -0.025424756 -0.025038475
0002b0 34 71 33 3c 44 83 97 bc b7 bf 0c 3c e7 3a 8d bc
       0.010952283 -0.01849521 0.00859063 -0.01724
0002c0 c6 84 c9 bb 0e 22 46 bd 80 8a cc bb de f6 c5 bc
       -0.006149861 -0.04837232 -0.0062420964 -0.024165567
0002d0 b5 90 ea bc 02 42 d3 38 0a 61 5d bd 7b 17 3b 3c
       -0.028633455 0.00010073559 -0.05404762 0.011419172
0002e0 61 3f be bb 17 7c 93 3c cd 88 17 bb fb 06 a1 bb
       -0.005805895 0.018003507 -0.002312231 -0.004914162
0002f0 55 46 71 bc b2 69 8e bc c1 bb 2d 3a a9 b8 83 bc
       -0.014726241 -0.017384384 0.0006627404 -0.016079264
000300 f3 ee 5f bc 84 09 06 3d 4d c8 18 3d b4 48 32 3c
       -0.01366781 0.03272392 0.037300397 0.010881592
000310 d0 18 e8 3c 82 a0 c9 3c 2e 51 81 3c 2e 28 55 3c
       0.028332144 0.024612669 0.01578578 0.013010068
000320 27 97 5c 3c f5 83 3d bc 34 13 f3 bc db 51 61 bc
       0.013463772 -0.011567106 -0.029672243 -0.013752426
000330 cb ad 98 bc ca 6c f3 bc 82 a0 00 3a 75 32 e8 3c
       -0.018637558 -0.02971496 0.000490673 0.028344372
000340 4a 6b 0b bc de 27 2f 3c 04 fd 0b 3d 10 d1 01 3c
       -0.008509466 0.010690657 0.03417684 0.00792338
000350 a5 5a fa 3c 1d e6 90 bc 79 33 53 3c e9 0e c0 3a
       0.0305608 -0.017687852 0.01289069 0.0014652881
000360 45 21 1f bd 5c d0 b5 3b 0d 67 02 bc c2 d3 c4 bc
       -0.038850088 0.00554852 -0.0079591395 -0.024026755
000370 2a f5 e0 3c a6 06 8b 3b 32 d5 61 3c e0 8c 21 bb
       0.027460653 0.004242736 0.01378374 -0.0024650618
000380 45 76 cf bc a4 bb 27 bd 59 61 20 ba 1e 6d 78 3a
       -0.02532495 -0.040950432 -0.00061180216 0.0009476709
000390 42 1e 1d bc 2f c0 ec ba 26 11 20 3c 35 00 79 3c
       -0.009589734 -0.0018062646 0.0097697135 0.015197803
0003a0 04 93 9a 3c 62 a0 b5 b9 c0 1d b1 3c c0 2a af bc
       0.01886893 -0.00034642505 0.021620631 -0.02138269
0003b0 65 45 92 3c d0 8e 49 bc 92 f1 f9 3b fd ef ae bb
       0.017855356 -0.012302116 0.0076276744 -0.0053386674
0003c0 0a e9 bc 3a ab 1f 38 3c 06 0f 5b 3c 9d 50 76 3c
       0.0014412713 0.011238019 0.013370281 0.015033868
0003d0 c6 29 1d bd f9 53 60 3c 49 e2 69 3b 52 c5 a7 39
       -0.038369916 0.013691896 0.0035687855 0.00031999737
0003e0 cc 3a 5b bc 27 41 c7 bc c2 3e e8 3b bb 01 31 bc
       -0.0133807175 -0.02432306 0.0070875594 -0.010803635
0003f0 ba 7c 01 3b 0e fc 1e 3c 12 63 70 3c 6b c6 39 ba
       0.001975818 0.009703649 0.014672058 -0.00070867565

transformer.h.0.ln_1.bias f4 [32]
000000 00 00 00 00 00 00 00 00 00 00 00 00 00 00 00 00
       0.0 0.0 0.0 0.0
000010 00 00 00 00 00 00 00 00 00 00 00 00 00 00 00 00
       0.0 0.0 0.0 0.0
000020 00 00 00 00 00 00 00 00 00 00 00 00 00 00 00 00
       0.0 0.0 0.0 0.0
000030 00 00 00 00 00 00 00 00 00 00 00 00 00 00 00 00
       0.0 0.0 0.0 0.0
000040 00 00 00 00 00 00 00 00 00 00 00 00 00 00 00 00
       0.0 0.0 0.0 0.0
000050 00 00 00 00 00 00 00 00 00 00 00 00 00 00 00 00
       0.0 0.0 0.0 0.0
000060 00 00 00 00 00 00 00 00 00 00 00 00 00 00 00 00
       0.0 0.0 0.0 0.0
000070 00 00 00 00 00 00 00 00 00 00 00 00 00 00 00 00
       0.0 0.0 0.0 0.0

transformer.h.0.ln_1.weight f4 [32]
000000 00 00 80 3f 00 00 80 3f 00 00 80 3f 00 00 80 3f
       1.0 1.0 1.0 1.0
000010 00 00 80 3f 00 00 80 3f 00 00 80 3f 00 00 80 3f
       1.0 1.0 1.0 1.0
000020 00 00 80 3f 00 00 80 3f 00 00 80 3f 00 00 80 3f
       1.0 1.0 1.0 1.0
000030 00 00 80 3f 00 00 80 3f 00 00 80 3f 00 00 80 3f
       1.0 1.0 1.0 1.0
000040 00 00 80 3f 00 00 80 3f 00 00 80 3f 00 00 80 3f
       1.0 1.0 1.0 1.0
000050 00 00 80 3f 00 00 80 3f 00 00 80 3f 00 00 80 3f
       1.0 1.0 1.0 1.0
000060 00 00 80 3f 00 00 80 3f 00 00 80 3f 00 00 80 3f
       1.0 1.0 1.0 1.0
000070 00 00 80 3f 00 00 80 3f 00 00 80 3f 00 00 80 3f
       1.0 1.0 1.0 1.0

transformer.h.0.ln_2.bias f4 [32]
000000 00 00 00 00 00 00 00 00 00 00 00 00 00 00 00 00
       0.0 0.0 0.0 0.0
000010 00 00 00 00 00 00 00 00 00 00 00 00 00 00 00 00
       0.0 0.0 0.0 0.0
000020 00 00 00 00 00 00 00 00 00 00 00 00 00 00 00 00
       0.0 0.0 0.0 0.0
000030 00 00 00 00 00 00 00 00 00 00 00 00 00 00 00 00
       0.0 0.0 0.0 0.0
000040 00 00 00 00 00 00 00 00 00 00 00 00 00 00 00 00
       0.0 0.0 0.0 0.0
000050 00 00 00 00 00 00 00 00 00 00 00 00 00 00 00 00
       0.0 0.0 0.0 0.0
000060 00 00 00 00 00 00 00 00 00 00 00 00 00 00 00 00
       0.0 0.0 0.0 0.0
000070 00 00 00 00 00 00 00 00 00 00 00 00 00 00 00 00
       0.0 0.0 0.0 0.0

transformer.h.0.ln_2.weight f4 [32]
000000 00 00 80 3f 00 00 80 3f 00 00 80 3f 00 00 80 3f
       1.0 1.0 1.0 1.0
000010 00 00 80 3f 00 00 80 3f 00 00 80 3f 00 00 80 3f
       1.0 1.0 1.0 1.0
000020 00 00 80 3f 00 00 80 3f 00 00 80 3f 00 00 80 3f
       1.0 1.0 1.0 1.0
000030 00 00 80 3f 00 00 80 3f 00 00 80 3f 00 00 80 3f
       1.0 1.0 1.0 1.0
000040 00 00 80 3f 00 00 80 3f 00 00 80 3f 00 00 80 3f
       1.0 1.0 1.0 1.0
000050 00 00 80 3f 00 00 80 3f 00 00 80 3f 00 00 80 3f
       1.0 1.0 1.0 1.0
000060 00 00 80 3f 00 00 80 3f 00 00 80 3f 00 00 80 3f
       1.0 1.0 1.0 1.0
000070 00 00 80 3f 00 00 80 3f 00 00 80 3f 00 00 80 3f
       1.0 1.0 1.0 1.0

transformer.h.0.mlp.c_fc.bias f4 [128]
000000 00 00 00 00 00 00 00 00 00 00 00 00 00 00 00 00
       0.0 0.0 0.0 0.0
000010 00 00 00 00 00 00 00 00 00 00 00 00 00 00 00 00
       0.0 0.0 0.0 0.0
000020 00 00 00 00 00 00 00 00 00 00 00 00 00 00 00 00
       0.0 0.0 0.0 0.0
000030 00 00 00 00 00 00 00 00 00 00 00 00 00 00 00 00
       0.0 0.0 0.0 0.0
000040 00 00 00 00 00 00 00 00 00 00 00 00 00 00 00 00
       0.0 0.0 0.0 0.0
000050 00 00 00 00 00 00 00 00 00 00 00 00 00 00 00 00
       0.0 0.0 0.0 0.0
000060 00 00 00 00 00 00 00 00 00 00 00 00 00 00 00 00
       0.0 0.0 0.0 0.0
000070 00 00 00 00 00 00 00 00 00 00 00 00 00 00 00 00
       0.0 0.0 0.0 0.0
000080 00 00 00 00 00 00 00 00 00 00 00 00 00 00 00 00
       0.0 0.0 0.0 0.0
000090 00 00 00 00 00 00 00 00 00 00 00 00 00 00 00 00
       0.0 0.0 0.0 0.0
0000a0 00 00 00 00 00 00 00 00 00 00 00 00 00 00 00 00
       0.0 0.0 0.0 0.0
0000b0 00 00 00 00 00 00 00 00 00 00 00 00 00 00 00 00
       0.0 0.0 0.0 0.0
0000c0 00 00 00 00 00 00 00 00 00 00 00 00 00 00 00 00
       0.0 0.0 0.0 0.0
0000d0 00 00 00 00 00 00 00 00 00 00 00 00 00 00 00 00
       0.0 0.0 0.0 0.0
0000e0 00 00 00 00 00 00 00 00 00 00 00 00 00 00 00 00
       0.0 0.0 0.0 0.0
0000f0 00 00 00 00 00 00 00 00 00 00 00 00 00 00 00 00
       0.0 0.0 0.0 0.0
000100 00 00 00 00 00 00 00 00 00 00 00 00 00 00 00 00
       0.0 0.0 0.0 0.0
000110 00 00 00 00 00 00 00 00 00 00 00 00 00 00 00 00
       0.0 0.0 0.0 0.0
000120 00 00 00 00 00 00 00 00 00 00 00 00 00 00 00 00
       0.0 0.0 0.0 0.0
000130 00 00 00 00 00 00 00 00 00 00 00 00 00 00 00 00
       0.0 0.0 0.0 0.0
000140 00 00 00 00 00 00 00 00 00 00 00 00 00 00 00 00
       0.0 0.0 0.0 0.0
000150 00 00 00 00 00 00 00 00 00 00 00 00 00 00 00 00
       0.0 0.0 0.0 0.0
000160 00 00 00 00 00 00 00 00 00 00 00 00 00 00 00 00
       0.0 0.0 0.0 0.0
000170 00 00 00 00 00 00 00 00 00 00 00 00 00 00 00 00
       0.0 0.0 0.0 0.0
000180 00 00 00 00 00 00 00 00 00 00 00 00 00 00 00 00
       0.0 0.0 0.0 0.0
000190 00 00 00 00 00 00 00 00 00 00 00 00 00 00 00 00
       0.0 0.0 0.0 0.0
0001a0 00 00 00 00 00 00 00 00 00 00 00 00 00 00 00 00
       0.0 0.0 0.0 0.0
0001b0 00 00 00 00 00 00 00 00 00 00 00 00 00 00 00 00
       0.0 0.0 0.0 0.0
0001c0 00 00 00 00 00 00 00 00 00 00 00 00 00 00 00 00
       0.0 0.0 0.0 0.0
0001d0 00 00 00 00 00 00 00 00 00 00 00 00 00 00 00 00
       0.0 0.0 0.0 0.0
0001e0 00 00 00 00 00 00 00 00 00 00 00 00 00 00 00 00
       0.0 0.0 0.0 0.0
0001f0 00 00 00 00 00 00 00 00 00 00 00 00 00 00 00 00
       0.0 0.0 0.0 0.0

transformer.h.0.mlp.c_fc.weight f4 [32, 128]
000000 ce 73 d4 3a 73 a8 c2 bc cd b8 a4 ba 97 e9 01 bb
       0.0016208829 -0.023761963 -0.0012567282 -0.0019823068
000010 9b d8 66 3c 19 9a 3c 3c 18 0a cb 3c f9 89 bc bc
       0.014089729 0.011511349 0.024785087 -0.02301501
000020 d8 96 e9 3b 5d 4b b8 ba e0 13 01 bc 34 7e ea bb
       0.0071285777 -0.0014060546 -0.007878274 -0.007156158
000030 a3 de 08 bb 4b 7f a6 3c e7 65 48 bd b5 e9 59 3c
       -0.0020884655 0.02032437 -0.048925307 0.013300349
000040 0f ea f1 3a 47 a7 74 3c 39 ce e2 3b 47 35 14 bd
       0.0018456596 0.01493246 0.0069215563 -0.03618362
000050 82 dd 2a bd e9 b8 0b 3d 01 ca 45 bb 18 9c 20 3d
       -0.041715153 0.03411189 -0.0030180218 0.039211363
000060 09 d7 d7 ba 75 cb 98 bc 87 ff b4 bb d4 a3 b5 bb
       -0.0016467284 -0.018651703 -0.0055236253 -0.0055432115
000070 50 c0 55 3c e1 12 d0 3b 80 d6 ad bc f9 29 05 3a
       0.013046339 0.006349907 -0.021220446 0.0005079802
000080 02 21 65 3c d7 42 de 3c ea 2f 0d bd c2 7d 0c bc
       0.01398492 0.027131481 -0.034469523 -0.008574905
000090 9e 4d 20 bc 22 e6 e4 3b 38 83 39 bc f8 35 4c 3c
       -0.00978413 0.006985442 -0.011322789 0.012464039
0000a0 c5 f5 29 bd 9b 6f cc bb 3b af 00 3d 6f cf aa 3a
       -0.04149415 -0.0062388903 0.031417113 0.0013031791
0000b0 02 1b c0 ba 72 bc c6 bc 7b 0f aa 3c a3 13 75 3c
       -0.0014656486 -0.02425978 0.020759335 0.014958295
0000c0 b7 13 de ba 0c 4f fd bc aa e3 45 bc 1e 07 64 3c
       -0.0016943131 -0.030921482 -0.012078205 0.0139177125
0000d0 f9 37 a8 3c 44 8b 2f 3d 21 99 97 bb cd 31 0b 3b
       0.020534502 0.042857423 -0.0046264087 0.00212394
0000e0 2a 92 7e bb 73 38 c8 3c 2f 11 46 bc 77 49 c1 bc
       -0.0038844445 0.02444098 -0.012089058 -0.023594601
0000f0 db f2 ab 39 d2 b5 23 bc 12 97 eb 3c 3b 46 3a ba
       0.00032796603 -0.00999208 0.02875856 -0.0007105802
000100 f6 ec 8f bb 5d 92 11 bc bb cf 2b bb 07 a2 bf bb
       -0.0043922616 -0.008884993 -0.0026216346 -0.0058481726
000110 6e 65 60 3c b3 b9 db bb 5e 02 cf 3b dd 35 69 3c
       0.013696058 -0.0067054867 0.006317421 0.014234033
000120 56 3f 96 bb 90 7b e5 3c 28 f6 22 3d e7 12 5d 3c
       -0.004585187 0.02801302 0.039785534 0.013493276
000130 8e 94 19 bc c4 3c 30 3b 57 82 14 3c ca d8 b1 bc
       -0.009373797 0.0026891688 0.009064279 -0.021709818
000140 8e 2b 20 3d 7b 1e f2 ba e6 76 f4 b9 4b f4 8e bc
       0.039104037 -0.0018472219 -0.00046627893 -0.017450472
000150 06 30 1f 3d 29 f9 7b 3c 57 0f 69 bc 94 c6 5f bc
       0.038864158 0.015379229 -0.014224849 -0.013658185
000160 8d be 00 3c 23 fb 82 3c 5b e6 81 3c 1b 7d 58 bc
       0.007857931 0.015988892 0.015856912 -0.013213421
000170 98 2c a7 3c 79 96 5d 39 cc 58 59 3b eb 8e 15 bc
       0.020407006 0.00021132258 0.00331645 -0.009128313
000180 b3 5a 7e bc c6 41 f1 3c dd 90 18 3d f1 a5 8f bc
       -0.015524554 0.029450309 0.037247527 -0.017535182
000190 77 c0 a7 bc f8 e3 05 bc 74 54 72 bd ad 84 ae bb
       -0.020477517 -0.008172028 -0.059162572 -0.005325875
0001a0 a6 85 96 3c 01 f8 1b 3c 5e 21 ea bb cf eb b0 ba
       0.018374275 0.009519578 -0.007145091 -0.0013498011
0001b0 ec 2f a1 bc 72 29 6e bb 3c 5c af bc fb d6 23 3d
       -0.019676171 -0.0036340621 -0.021406285 0.039999943
0001c0 4f 90 c9 3c 4b cd 2d 3d f9 34 47 bb ce b4 d5 3c
       0.024604945 0.04243211 -0.0030396564 0.026087191
0001d0 dc ee 8c bc 61 bb 4f bc ea 9d dd 3c 9b 4f d0 bc
       -0.01720374 -0.012678952 0.027052838 -0.025428584
0001e0 f9 8b 26 3c 0a 44 23 3d 94 ff 4d b8 d8 bf fa 3b
       0.010165208 0.03985981 -4.9113834e-05 0.007652264
0001f0 dc 87 36 bb 6d 3c 80 bc 85 1d 1a 3c d0 1d 3e ba
       -0.0027851975 -0.015653813 0.009406452 -0.0007252367
000200 f5 06 9b bc ca 73 fc bb 79 d1 84 bb de 58 35 3c
       -0.018924216 -0.007704233 -0.0040532914 0.011068551
000210 6f 55 c3 bc ae 81 1f bc 6d 29 46 bc 00 a2 a2 bc
       -0.023844449 -0.009735508 -0.012094838 -0.019852638
000220 8a 95 a6 bc 64 97 14 bc 8c 91 5c 3c 94 13 19 3d
       -0.020334978 -0.009069297 0.013462435 0.037372187
000230 07 59 38 3c d9 3c 9c 3b 89 4f 35 3c 23 de 6c bb
       0.0112516945 0.004767996 0.011066326 -0.0036143146
000240 01 47 fa bc 27 26 26 bc f9 80 09 3d 7b fa d1 bc
       -0.030551435 -0.010140932 0.033570264 -0.025632134
000250 b5 82 b7 3c 36 9e 93 3c 9e e7 16 bc 8f 5b 10 bd
       0.022401193 0.018019777 -0.009210495 -0.035243567
000260 5b 05 1f bd 7e 90 cc 3a 33 ae 5e bc 2f 54 78 bc
       -0.038823467 0.0015607027 -0.013591337 -0.01515679
000270 ab ed 5c bb 2f be 58 bd 6d 1f 08 bd 14 c9 c2 3c
       -0.0033710997 -0.05291575 -0.033233095 0.023777522
000280 d3 6c 62 3c 9d b5 9c bc 1b cf 01 3c c2 ce d5 3b
       0.013819891 -0.019129569 0.007922913 0.0065248916
000290 65 c0 ca 3a df 00 0d 3b 73 5d 5b bc 7e 08 38 3c
       0.0015468715 0.0021515412 -0.013388979 0.011232493
0002a0 4f a4 02 ba c1 59 3c 3c 82 f2 58 3d c5 8d aa 3c
       -0.00049835903 0.011496008 0.05296565 0.020819554
0002b0 a9 8c 66 bb d7 23 8e bb dc 06 4d 3d c7 bb fa bc
       -0.0035179055 -0.0043377685 0.05005537 -0.030607117
0002c0 87 84 84 bb 8b 08 88 3c 94 99 30 3c 25 5d 03 3d
       -0.004044119 0.016605636 0.010778803 0.03207125
0002d0 7c c0 56 3d 14 6c 33 bc f2 d1 ad 3c 4f 46 45 3a
       0.05242966 -0.010951061 0.021218274 0.00075254304
0002e0 be 9c 99 3c 40 69 7b 3b f5 88 33 3b 8c b3 65 3c
       0.018751498 0.0038362294 0.0027394865 0.014019858
0002f0 97 1a 7d bc 0b 90 ff b7 d5 5f 03 3c d3 34 0c 3d
       -0.015448234 -3.0465444e-05 0.008018454 0.034230065
000300 89 6e 8a bc f0 37 6b 3b 79 49 ab bc b9 27 5b 3c
       -0.01689841 0.0035891496 -0.020909058 0.01337617
000310 58 46 3f bd 55 da 64 bc 4c e6 ec bc 13 c0 c4 bb
       -0.046697944 -0.01396807 -0.028918408 -0.0060043423
000320 34 af ba bc 58 86 d8 bc b9 e9 07 bb b9 1b 96 bc
       -0.022788621 -0.026431248 -0.0020738675 -0.018323766
000330 37 82 06 3d c1 a7 b0 3c c2 d6 f5 ba ab bf 3f bb
       0.032839026 0.021564366 -0.0018756019 -0.002925853
000340 6d b0 00 bc 77 38 63 3c c7 aa 3e bc b9 0f 26 bb
       -0.007854563 0.013868443 -0.011637396 -0.0025338961
000350 79 6e 09 bc e7 65 84 ba a0 f6 56 bc 55 2b f2 3c
       -0.008388155 -0.001010117 -0.013120323 0.029561678
000360 f0 d3 40 3c b7 ca 5d b9 5b a7 62 bc 8d 76 96 3c
       0.01176928 -0.0002115172 -0.013833846 0.018367076
000370 6f d6 e9 bc 20 78 31 3c 2d 56 04 bc 82 b1 1a bd
       -0.028544633 0.010831863 -0.0080771865 -0.03776694
000380 ab 65 87 bc d4 0e 95 3c 8b 93 d7 bc 48 a7 10 bd
       -0.016527971 0.018195547 -0.026315471 -0.03531578
000390 e2 4a e9 3b 50 80 75 3c 40 8a bb 3b 7d b6 4a 3c
       0.0071195224 0.014984205 0.005723268 0.01237261
0003a0 78 bc b8 3c 62 28 ce bc 88 7d 88 3c 56 3b 11 3c
       0.022550806 -0.02516574 0.01666142 0.008864244
0003b0 81 1d 67 b9 57 11 fc 3b 5e 30 49 bc 6a bd c8 3c
       -0.00022040868 0.0076924968 -0.012279598 0.024504382
0003c0 64 17 24 3c c6 5b 82 3c 94 b3 ee bb 0d fa a3 3c
       0.010015342 0.015912902 -0.007284591 0.020016694
0003d0 10 a7 25 3d ef e8 89 3c e2 f8 ff 3b 86 01 d3 ba
       0.040442526 0.016834704 0.0078116516 -0.0016098476
0003e0 cd 74 1c 3c 4a 6d f0 3c a7 03 f7 3a c2 b6 9c 3b
       0.009549332 0.029348988 0.0018845693 0.0047825286
0003f0 cf 74 37 3b 12 4f 6f 3c ee 3f 68 3c 80 e4 88 3a
       0.0027993207 0.014606254 0.014175398 0.0010444075

transformer.h.0.mlp.c_proj.bias f4 [32]
000000 00 00 00 00 00 00 00 00 00 00 00 00 00 00 00 00
       0.0 0.0 0.0 0.0
000010 00 00 00 00 00 00 00 00 00 00 00 00 00 00 00 00
       0.0 0.0 0.0 0.0
000020 00 00 00 00 00 00 00 00 00 00 00 00 00 00 00 00
       0.0 0.0 0.0 0.0
000030 00 00 00 00 00 00 00 00 00 00 00 00 00 00 00 00
       0.0 0.0 0.0 0.0
000040 00 00 00 00 00 00 00 00 00 00 00 00 00 00 00 00
       0.0 0.0 0.0 0.0
000050 00 00 00 00 00 00 00 00 00 00 00 00 00 00 00 00
       0.0 0.0 0.0 0.0
000060 00 00 00 00 00 00 00 00 00 00 00 00 00 00 00 00
       0.0 0.0 0.0 0.0
000070 00 00 00 00 00 00 00 00 00 00 00 00 00 00 00 00
       0.0 0.0 0.0 0.0

transformer.h.0.mlp.c_proj.weight f4 [128, 32]
000000 94 38 83 bb d4 c7 5c 3b 2e 75 13 3d 9b 07 7f 3b
       -0.0040045474 0.0033688443 0.036000423 0.0038914445
000010 b5 2e ed 3b 83 53 7f 3b 12 53 8e 3c b5 19 38 3a
       0.007238234 0.003895969 0.017373595 0.00070228736
000020 4d c5 22 3d b7 08 16 3d bb 06 25 3c 0d 6e 3e 3c
       0.039738942 0.036629405 0.010072405 0.011622918
000030 e4 8b 17 3d f5 04 e2 bb 3b 73 4c 3c 33 dc a6 bb
       0.036998644 -0.0068975636 0.012478645 -0.0050921678
000040 06 f2 fe 3c 5b a4 09 3c 90 ec 94 3c c5 a4 f1 ba
       0.031121265 0.008401002 0.018179208 -0.0018435946
000050 79 32 29 3c 84 78 a1 bc 01 5e e0 bb bb 97 a1 3c
       0.010326975 -0.019710787 -0.0068471436 0.019725671
000060 dc 2f e8 3c 57 01 15 3d 1c 80 f0 38 d8 74 d9 3c
       0.028343134 0.03637823 0.00011467954 0.026544973
000070 34 d7 96 bc bc 05 ad bc fb dd 72 3a 2e 9a af 3c
       -0.018413164 -0.021120898 0.0009264645 0.021435823
000080 66 4a 4f 3c 4b 21 1a 3d 61 21 e0 3c 13 10 9d 3c
       0.012652015 0.037629407 0.027359666 0.019172704
000090 e9 8f cb ba a7 8c 6e bc 8d 63 94 bc db e1 19 3c
       -0.001553056 -0.014559901 -0.018113876 0.009392227
0000a0 ca 10 35 b9 f8 5d e2 bb 2d 0e 14 bc 26 d3 b9 3c
       -0.0001726776 -0.0069081746 -0.009036583 0.022683691
0000b0 86 83 18 3d c6 e9 43 3d fe 5e aa b9 eb 9b 14 3d
       0.037234806 0.047830366 -0.000324957 0.036281507
0000c0 ee 49 91 3c 9b 80 53 ba 47 f0 69 3c 5d 5e 01 bd
       0.017735448 -0.0008068175 0.014278478 -0.031584132
0000d0 b2 5a 31 bd 69 fe e0 3c 7f a9 0e bc 4b 77 59 3c
       -0.043299384 0.027465062 -0.008707403 0.013273071
0000e0 ed 69 3c bb b2 e2 1d 3c 0b 6d b8 ba b9 a5 2f bd
       -0.002874966 0.009636568 -0.0014070583 -0.042882655
0000f0 b6 a0 99 3c 09 67 0e bb 19 43 c2 3a bc 41 2e 3d
       0.01875339 -0.0021728894 0.0014821022 0.042543158
000100 65 78 a8 ba fc 92 c4 3b 47 af 6a bc ce 1d a7 3a
       -0.0012853263 0.005998967 -0.014324016 0.0012749971
000110 3a e0 91 3c 92 04 2c bb a9 81 a2 bc 82 e0 90 3c
       0.017807115 -0.0026247841 -0.019837217 0.017685179
000120 6f 5f 5c 3d b0 d9 72 3c a1 06 53 bc b2 89 2f 3c
       0.05380195 0.014822409 -0.012879998 0.010713981
000130 fd 1e e1 3c db 85 75 3c 59 f4 bd 3c 5b 87 e2 3a
       0.027480597 0.014985527 0.023187803 0.0017282771
000140 38 9f 2c bd 8b 1f 68 3c 8f 46 7b bc 61 93 18 3c
       -0.04214403 0.014167677 -0.015336647 0.009312482
000150 45 7c 18 3b 94 dd 83 bb 9d 09 82 3c 30 79 d8 bc
       0.002326743 -0.004024217 0.015873725 -0.026424974
000160 d0 c1 18 3d 61 c3 cb 3b 66 3e 0d 3d 12 98 cf bc
       0.03729421 0.0062183593 0.034483336 -0.025341067
000170 cf 08 82 bb 09 2a 31 bd e0 ae 01 bd eb a5 ae 3a
       -0.003968335 -0.04325298 -0.031660914 0.0013324594
000180 40 ed 98 3b a7 72 3a 3c ef d8 4c bc f3 8a 2d 3d
       0.0046669543 0.011379874 -0.012502893 0.04236884
000190 57 2d 39 bd 33 02 5d bc f4 39 a0 bc 85 4e 13 bd
       -0.045209255 -0.013489294 -0.019558884 -0.035963554
0001a0 90 c7 04 bc b3 4e 80 bc d4 33 88 bc 7c 58 54 bc
       -0.00810422 -0.015662527 -0.016626276 -0.012960549
0001b0 82 75 78 3c 35 98 d0 bb 12 95 0e 3d 7d 75 00 bd
       0.015164735 -0.0063658007 0.034810133 -0.031362046
0001c0 5f 34 07 bc be 30 56 3c 98 5b 96 bc 34 65 1b bd
       -0.008252232 0.0130731445 -0.018354222 -0.03793831
0001d0 c1 0d da 3c a9 57 3b 3c 64 86 5e bc 4d 8a c8 3b
       0.026617886 0.011434474 -0.013581846 0.0061200024
0001e0 d1 2d 08 bc d5 ab f3 3a a0 b9 8a 3b 59 a5 a0 3c
       -0.008311705 0.0018590639 0.004233554 0.019610094
0001f0 95 87 ba 3b b2 db 0f bd 59 38 3e 3a cf 39 f1 bb
       0.005692432 -0.035121627 0.0007256321 -0.0073616276
000200 4a a8 6c bb 7c 34 86 bc 08 80 9e 3c dd 76 56 3d
       -0.003611105 -0.016382448 0.01934816 0.05235945
000210 f7 01 3d 3d 2d 46 3a bc 76 29 16 bc 47 22 41 bc
       0.046144452 -0.01136927 -0.0091651585 -0.0117879575
000220 e9 8f 90 3c 5e ab a2 bb 21 53 62 bc 20 a2 8b bc
       0.017646747 -0.004964276 -0.013813765 -0.01704508
000230 46 fa 46 3c b7 b2 c4 3c f4 22 27 3c fb 29 d3 3b
       0.012144631 0.024011 0.010201205 0.0064442134
000240 25 42 97 bc 32 7b fd 3c 09 c1 c4 3c 2f 8f b0 bc
       -0.018464157 0.030942533 0.024017828 -0.02155265
000250 4d 26 8b 3c 3b e5 0b 3c 2c 3d 6b 3c c2 36 02 3d
       0.016986037 0.0085385395 0.014357846 0.031790502
000260 be 86 14 bd 0c 36 f8 3b fc 47 1d 3d ce cc c2 bc
       -0.036261313 0.0075748023 0.038398728 -0.0237793
000270 b7 cf 74 3c ca 62 ef bb a6 17 e4 3c e0 0d c1 3c
       0.014942101 -0.0073054777 0.027843308 0.023566186
000280 c7 32 7a bb 30 ca d1 3b 2e b1 b4 bc a4 e1 b0 bc
       -0.0038177238 0.0064022765 -0.022057142 -0.021591969
000290 c4 d0 08 3c 98 63 7a 3c f2 ba 8f bb 89 02 95 bc
       0.008350555 0.015282534 -0.0043862993 -0.018189685
0002a0 30 b4 7a 3b ef 65 68 bc c0 55 04 3d 04 03 4a bb
       0.0038254373 -0.014184459 0.03230834 -0.0030824551
0002b0 e2 fe 04 bd 50 82 69 3b b3 9a 89 bc 0c 59 57 3c
       -0.032469638 0.003563065 -0.0167974 0.013143789
0002c0 f9 3f f0 3c 79 6a 71 bc d4 ba 86 3c 10 3d 3e 3c
       0.02932738 -0.014734858 0.016446508 0.011611238
0002d0 cf 38 d1 3c 54 e5 51 bc 2a 3b 60 3b f7 a1 6f bb
       0.025539784 -0.012811024 0.0034214952 -0.0036565044
0002e0 e2 4f 7f 3b 10 0a 96 39 40 fd fa 3c 74 e8 23 ba
       0.0038957526 0.00028617727 0.030638337 -0.0006252595
0002f0 94 d4 48 bd 07 df 65 bc 29 e7 86 3c 6b b9 11 bd
       -0.049030855 -0.014030225 0.016467648 -0.03557722
000300 a0 1c 64 bb 18 df 13 bc 02 9e 86 3c f7 4a 0c bd
       -0.00348071 -0.009025358 0.016432766 -0.03425118
000310 c9 71 1a 3c e0 de 44 3c 5d ad 53 3c db e3 8c bc
       0.009426543 0.012016028 0.012919751 -0.017198494
000320 47 a8 86 3c ed 20 8e bc d8 80 bd bc 4b e6 4b bc
       0.016437663 -0.017349685 -0.023132727 -0.012445043
000330 e5 45 44 3c f0 41 0d bd 4d 3e 27 3c a2 8d c9 3c
       0.011979555 -0.03448671 0.010207725 0.024603669
000340 01 95 06 bb a7 f3 b4 3c 35 f0 07 3c cb 22 80 bc
       -0.002053559 0.022088839 0.008297016 -0.01564159
000350 74 af 12 3d 39 c8 c9 3b d7 2d a0 bb 21 38 9f bc
       0.035811856 0.0061579016 -0.004888277 -0.019435944
000360 66 4b 24 3c 7b 2b 61 3c a0 98 01 3d c6 0a e4 bc
       0.010027742 0.013743277 0.031639695 -0.027837168
000370 13 33 76 3b cb 35 fe bb 00 ac c8 bc 41 e2 aa 39
       0.0037567064 -0.0077578775 -0.024496078 0.000325935
000380 c4 41 01 bc d0 39 be 3b c1 10 22 bb 2d 60 8a bc
       -0.007889215 0.0058052316 -0.0024729224 -0.016891563
000390 5d ba ca bc aa bd f9 3c a2 62 7b bc f2 4d f6 bc
       -0.024747068 0.030485947 -0.01534334 -0.030066464
0003a0 60 ce dd 3c 94 2f 45 bc c0 0b 2a ba 9c 7b 34 3b
       0.027075946 -0.012035269 -0.0006486736 0.0027539497
0003b0 c9 59 c5 bc 39 d5 f4 bc 97 ad 09 ba 9c 53 b9 3c
       -0.024090664 -0.029886829 -0.0005252002 0.022622876
0003c0 a6 0d d1 3c 64 61 39 3d 46 ee 80 bb 77 c8 78 b9
       0.025519203 0.045258895 -0.0039346544 -0.00023725802
0003d0 c9 85 64 3b d7 05 df 3c 3b ca 85 bb ac 98 67 bc
       0.0034869781 0.027224464 -0.0040829456 -0.014135521
0003e0 84 70 99 bb 8a 34 d7 3b 33 7a 85 bc dd 37 2d 3c
       -0.0046826024 0.0065675424 -0.01629362 0.010572401
0003f0 1c 93 ca bb 6e e1 a7 b7 00 4c 0e ba cc 75 0f 3c
       -0.0061820876 -2.0012925e-05 -0.0005428195 0.008756112

transformer.h.1.attn.c_attn.bias f4 [96]
000000 00 00 00 00 00 00 00 00 00 00 00 00 00 00 00 00
       0.0 0.0 0.0 0.0
000010 00 00 00 00 00 00 00 00 00 00 00 00 00 00 00 00
       0.0 0.0 0.0 0.0
000020 00 00 00 00 00 00 00 00 00 00 00 00 00 00 00 00
       0.0 0.0 0.0 0.0
000030 00 00 00 00 00 00 00 00 00 00 00 00 00 00 00 00
       0.0 0.0 0.0 0.0
000040 00 00 00 00 00 00 00 00 00 00 00 00 00 00 00 00
       0.0 0.0 0.0 0.0
000050 00 00 00 00 00 00 00 00 00 00 00 00 00 00 00 00
       0.0 0.0 0.0 0.0
000060 00 00 00 00 00 00 00 00 00 00 00 00 00 00 00 00
       0.0 0.0 0.0 0.0
000070 00 00 00 00 00 00 00 00 00 00 00 00 00 00 00 00
       0.0 0.0 0.0 0.0
000080 00 00 00 00 00 00 00 00 00 00 00 00 00 00 00 00
       0.0 0.0 0.0 0.0
000090 00 00 00 00 00 00 00 00 00 00 00 00 00 00 00 00
       0.0 0.0 0.0 0.0
0000a0 00 00 00 00 00 00 00 00 00 00 00 00 00 00 00 00
       0.0 0.0 0.0 0.0
0000b0 00 00 00 00 00 00 00 00 00 00 00 00 00 00 00 00
       0.0 0.0 0.0 0.0
0000c0 00 00 00 00 00 00 00 00 00 00 00 00 00 00 00 00
       0.0 0.0 0.0 0.0
0000d0 00 00 00 00 00 00 00 00 00 00 00 00 00 00 00 00
       0.0 0.0 0.0 0.0
0000e0 00 00 00 00 00 00 00 00 00 00 00 00 00 00 00 00
       0.0 0.0 0.0 0.0
0000f0 00 00 00 00 00 00 00 00 00 00 00 00 00 00 00 00
       0.0 0.0 0.0 0.0
000100 00 00 00 00 00 00 00 00 00 00 00 00 00 00 00 00
       0.0 0.0 0.0 0.0
000110 00 00 00 00 00 00 00 00 00 00 00 00 00 00 00 00
       0.0 0.0 0.0 0.0
000120 00 00 00 00 00 00 00 00 00 00 00 00 00 00 00 00
       0.0 0.0 0.0 0.0
000130 00 00 00 00 00 00 00 00 00 00 00 00 00 00 00 00
       0.0 0.0 0.0 0.0
000140 00 00 00 00 00 00 00 00 00 00 00 00 00 00 00 00
       0.0 0.0 0.0 0.0
000150 00 00 00 00 00 00 00 00 00 00 00 00 00 00 00 00
       0.0 0.0 0.0 0.0
000160 00 00 00 00 00 00 00 00 00 00 00 00 00 00 00 00
       0.0 0.0 0.0 0.0
000170 00 00 00 00 00 00 00 00 00 00 00 00 00 00 00 00
       0.0 0.0 0.0 0.0

transformer.h.1.attn.c_attn.weight f4 [32, 96]
000000 4e 0c 2b bc 15 58 eb 3b 8b 62 50 bc a1 c4 02 bc
       -0.010439945 0.007182131 -0.012718807 -0.00798145
000010 7b c4 d2 bc 99 0f 14 3c 45 06 c9 3a 47 ba 18 bb
       -0.025728455 0.009036922 0.0015336951 -0.002330439
000020 84 57 04 bd b9 67 0c 3d c9 cc 29 bd 0b 3d e0 bc
       -0.032310024 0.034278605 -0.041455064 -0.027372858
000030 77 91 92 bb 36 bd 10 bd 61 b8 9a bc 04 bf 2b 3c
       -0.004472907 -0.035336696 -0.018886747 0.010482553
000040 d7 19 c3 3c 6e a9 a1 3c 07 0a 5e 3a af 68 67 3c
       0.023816032 0.01973411 0.0008470122 0.01412408
000050 6b bf 38 bc e0 b7 aa 3c 74 e7 3a bc 79 7d 96 bb
       -0.011276106 0.020839632 -0.011407722 -0.004592594
000060 c7 c1 ce bb 66 d8 f6 bb 23 3c a1 bc 07 77 b9 bc
       -0.006309721 -0.007533121 -0.019681996 -0.022639764
000070 a7 e0 91 3c 9d 1d a7 bc d2 76 0c 3d 02 2d cd 3a
       0.017807318 -0.020399863 0.034293003 0.0015653672
000080 b8 aa cd 3a d3 15 62 3b 59 e5 11 3d 6e a6 74 bb
       0.0015691137 0.0034497872 0.035619114 -0.0037330645
000090 ec 29 e6 bc 52 e4 0c bc a0 d1 48 bc 1e d3 89 3c
       -0.028096162 -0.008599358 -0.01225701 0.016824301
0000a0 ca 88 77 3c b3 cf 21 ba e9 1f b1 3b 6c 83 a3 bb
       0.015108297 -0.0006172612 0.0054054153 -0.004990032
0000b0 6f 74 2d 3b cb 56 5a 3b 5d 09 05 3c f3 bd aa bc
       0.0026467105 0.0033315893 0.008119908 -0.020842528
0000c0 77 aa ea ba 30 8b 4a 3d 16 fc 97 bc 9e c4 83 3c
       -0.0017903586 0.049449146 -0.018552821 0.016084965
0000d0 c4 4a 86 3b aa 90 59 bc ef 57 8d 3b 34 97 53 3a
       0.004098268 -0.0132791195 0.004313461 0.0008071542
0000e0 42 e7 87 bc 64 5e b6 bc 9d 5f 14 3d ef 5a bf bc
       -0.016589765 -0.022261806 0.036223996 -0.02335879
0000f0 e9 e7 04 3d aa 4c ae 3c 7e 91 bd 3b 62 96 50 bb
       0.03244773 0.02127679 0.0057851663 -0.0031827916
000100 85 90 f2 3b 12 14 37 bc af b5 55 3d fe c3 20 3b
       0.007402482 -0.011174219 0.05217522 0.0024530883
000110 59 21 2c 3c d7 be ea 3c b7 78 b4 bb 7c ee 9f bb
       0.010505998 0.028655453 -0.0055075544 -0.0048807245
000120 0a 76 c3 3c a1 61 98 3c f2 d5 50 bc 34 ec 6f bc
       0.023859996 0.01860124 -0.012746321 -0.014643718
000130 c7 8f c1 bb 07 db ab 3a a9 ed a1 bc 5d bd fb 3b
       -0.005907032 0.001311154 -0.019766646 0.007682486
000140 0b dd ae bc 1b 7e 06 bd 97 fb 4a ba 65 f8 f8 3c
       -0.021345636 -0.032835107 -0.0007743178 0.030391881
000150 c9 3c ab bb 78 14 c3 3c 86 a4 2c 3c 06 47 0a bc
       -0.005225752 0.023813471 0.010537272 -0.008439785
000160 25 ab 70 bc 06 65 c0 bc e1 c8 d7 3b dc 8a 2c 3d
       -0.014689242 -0.023485672 0.006585226 0.042124614
000170 18 0e 6d bc 39 02 f8 3c ac fe 64 3c 7b a9 5b 3d
       -0.014468692 0.030274497 0.013976734 0.053628426
000180 84 5d dd 3a df fb 9c bb 64 24 84 b9 20 a4 c9 3c
       0.0016888832 -0.0047907676 -0.00025204115 0.024614394
000190 f9 d3 17 3d 7b b9 35 3b 0b 0c 25 3d f2 41 09 bc
       0.037067387 0.0027728963 0.04029469 -0.008377539
0001a0 52 c8 19 bb 28 c4 92 3b c9 09 a3 bc db b6 69 3c
       -0.0023465347 0.00447895 -0.019902127 0.014264788
0001b0 dd 59 bc 3c dc c6 48 3d 6a ac 60 bb c2 9e 28 3d
       0.022992069 0.049017772 -0.0034282454 0.04116703
0001c0 66 ee c2 bb 09 49 da 3c 96 6f 20 3c 30 7f fd bc
       -0.0059488295 0.026646154 0.009792229 -0.030944437
0001d0 2a d4 b8 bb d9 74 96 bc ed 39 09 bd 37 7f 4e 3c
       -0.0056405263 -0.018366264 -0.033502508 0.012603573
0001e0 ab d3 91 bb ab 54 46 3c 8d 0f 06 3c 9c 2a 77 3c
       -0.0044502816 0.012105147 0.0081824185 0.015085842
0001f0 81 87 1e 3d 9c 2f 27 3a 81 31 83 3c f4 76 98 3c
       0.038703445 0.0006377639 0.016014816 0.018611409
000200 dc e0 60 bc d0 bd e6 bc 36 7c 0b bd 42 e7 2a bc
       -0.013725486 -0.028166682 -0.034054004 -0.010431113
000210 d1 a6 18 3c 26 7a a1 bb 38 6b fc b9 e4 5e 1f 3c
       0.009317116 -0.0049278913 -0.0004814507 0.0097272135
000220 f3 56 3f 3c 19 f5 3c 3d 4e 4d 17 3b c4 b3 a7 bb
       0.011678445 0.04613218 0.0023086849 -0.0051178653
000230 65 cc 65 bc d8 a2 65 bc 7b cb 4a 3c b2 fb a6 bb
       -0.014025782 -0.014015876 0.012377615 -0.0050959224
000240 cb b9 b3 bb 2b d2 b3 bc fd a3 b3 bc a9 e5 43 3c
       -0.0054847947 -0.021950802 -0.021928782 0.011956611
000250 a5 c3 d7 3c 72 67 04 bd 06 11 2c 3c 46 67 81 3c
       0.026338408 -0.032325216 0.010502106 0.015796315
000260 eb 18 d1 3b 65 f4 8c bc 37 7f 12 bd 38 88 bc bc
       0.0063811443 -0.01720638 -0.035765853 -0.023014173
000270 b2 91 ba 3c 77 0e 89 3c 3c 00 44 3c 0e 31 23 3b
       0.022774551 0.01673053 0.0119629465 0.0024901065
000280 07 4f e7 3b 3c 74 6a 3a 90 74 95 3c 17 27 aa 3c
       0.0070589813 0.0008943712 0.018244058 0.020770593
000290 e2 b8 ba 3b db 10 8c bc c1 64 68 39 d4 37 2f bc
       0.0056983093 -0.017097881 0.00022162778 -0.010694463
0002a0 60 10 f1 bb cb 54 2c 3d d2 c1 6a 3c 26 70 fc 3c
       -0.0073566884 0.042073052 0.014328437 0.030815195
0002b0 36 0b ab bc d7 25 5b 3c a0 ec b8 3a 5b b0 50 bc
       -0.02087937 0.013375721 0.0014108606 -0.012737359
0002c0 ab 1e 43 bc cb 13 77 bc a0 ac 87 3c fb 04 25 bd
       -0.011909167 -0.015080403 0.016561806 -0.040287953
0002d0 45 eb 46 bc 1e d0 e0 3c b7 e9 9f bc db 1a 08 3d
       -0.012141054 0.027442988 -0.019520624 0.033228736
0002e0 ee 58 ab ba bd ea 62 3b 2d 64 89 bc e4 58 38 3c
       -0.0013072768 0.0034624778 -0.0167714 0.011251662
0002f0 b9 e2 98 3c c4 22 98 bc e6 46 04 bb c2 26 a1 bb
       0.018662797 -0.018571265 -0.002018386 -0.0049179504
000300 15 49 f2 3c 2c 8e 66 bc 84 9a 84 3c ee 45 05 bc
       0.029575864 -0.014071982 0.01618696 -0.008134348
000310 86 96 e1 bb ca 47 de 3b 76 a3 a3 bc 78 36 0d bd
       -0.006884399 0.0067834603 -0.019975405 -0.034475774
000320 27 4b bc 3c ee 5e 2c bc dd 0f c6 bb e5 86 13 bc
       0.022985054 -0.01052068 -0.0060443715 -0.009004329
000330 45 54 73 bc c5 27 dd bc f7 79 4e 3c dc a9 d0 3c
       -0.014851634 -0.026996503 0.012602321 0.02547162
000340 69 2e d7 bc d8 f1 d0 ba 80 a7 49 bd 0c 13 d9 3b
       -0.026267247 -0.0015941216 -0.049232006 0.006624585
000350 2f 81 77 3c 12 d2 3d 3c d9 78 7c bb 95 a2 f7 3c
       0.015106483 0.011585729 -0.003852418 0.030228892
000360 f2 31 7d 3c e2 f3 c0 3a 44 4d 4a bc aa cc c5 ba
       0.015453802 0.001472112 -0.012347523 -0.0015090902
000370 3c cc 60 bb 96 bb 0b bd e7 a6 11 3d e7 3f 09 b9
       -0.003430142 -0.034114443 0.03555956 -0.00013089144
000380 a9 7c 13 bb 05 26 03 ba 25 53 f9 bc 94 f4 b0 3c
       -0.0022504723 -0.0005002919 -0.030435154 0.021600999
000390 69 48 f4 bc f0 2f 38 bd 42 2a 89 3b 4d 24 0b bc
       -0.029819684 -0.04496759 0.0041859457 -0.0084925415
0003a0 c6 ad aa bc 0c aa 96 bc e9 4f 00 bd a7 9b 6b bb
       -0.020834815 -0.018391632 -0.03132621 -0.003595093
0003b0 e0 02 4c 3c 14 d9 50 bc 55 16 92 bc 71 a8 14 ba
       0.012451857 -0.012747068 -0.017832914 -0.00056708517
0003c0 4f 79 f8 bc 96 9e 97 bd 72 2c 0c bd ae 0a bb bc
       -0.030331282 -0.07403295 -0.034222074 -0.02283224
0003d0 52 f1 b4 3c 1e 8b aa 3b 6e 1c f3 ba 9b f5 d3 bc
       0.022087727 0.0052045723 -0.0018547901 -0.02587395
0003e0 b9 6c a0 3b 2b 9b 38 bb dc 97 31 bc 19 9e 0c bb
       0.0048957733 -0.002816866 -0.010839429 -0.0021456538
0003f0 d5 ab 91 bc 91 3e 86 bc 32 a3 97 3c 65 ec cc 3c
       -0.017782131 -0.016387256 0.018510435 0.025015065

transformer.h.1.attn.c_proj.bias f4 [32]
000000 00 00 00 00 00 00 00 00 00 00 00 00 00 00 00 00
       0.0 0.0 0.0 0.0
000010 00 00 00 00 00 00 00 00 00 00 00 00 00 00 00 00
       0.0 0.0 0.0 0.0
000020 00 00 00 00 00 00 00 00 00 00 00 00 00 00 00 00
       0.0 0.0 0.0 0.0
000030 00 00 00 00 00 00 00 00 00 00 00 00 00 00 00 00
       0.0 0.0 0.0 0.0
000040 00 00 00 00 00 00 00 00 00 00 00 00 00 00 00 00
       0.0 0.0 0.0 0.0
000050 00 00 00 00 00 00 00 00 00 00 00 00 00 00 00 00
       0.0 0.0 0.0 0.0
000060 00 00 00 00 00 00 00 00 00 00 00 00 00 00 00 00
       0.0 0.0 0.0 0.0
000070 00 00 00 00 00 00 00 00 00 00 00 00 00 00 00 00
       0.0 0.0 0.0 0.0
